dnn/torch_dnn_1.pt (torch, 441520 bytes, 6 tensors)

weight f4 [128, 784]
0.0007670394 0.020889258 -0.026125867 0.03461373 -0.0068807863 -0.029180327 0.033137407 0.014951485
-0.03428818 0.020565515 0.017186783 0.0017742814 0.0086901 -0.027242046 -0.015651874 0.0037323323
-0.021240087 -0.0015884809 0.004491031 0.032047894 0.023192074 -0.015316291 -0.0072608422 -0.009253851
0.035590734 -0.0016778368 0.031816363 0.034737058 -0.02209967 0.014840774 0.0033431863 -0.022509316
-0.017070074 0.02841533 0.01938135 0.016940193 0.010635563 -0.0355752 0.033420492 -0.03365474
0.033115696 0.031862445 0.018447904 -0.014814033 0.03552991 0.005117479 -0.034486163 0.005313088
0.016790016 -0.00030388974 0.010705238 0.019707974 0.027952958 0.010406371 -0.019790135 -0.003361915
-0.0158082 0.024394246 0.008334583 -0.010904751 -0.02735255 0.014729847 -0.002800613 -0.022355197
-0.011052528 0.031555064 0.006549435 -0.0146642355 -0.036847305 -0.039363883 0.007344963 -0.005816763
0.004617336 -0.0077163973 -0.023164213 -0.011578552 -0.029474206 0.009631693 -0.032972407 -6.612109e-05
0.032690965 -9.285168e-05 -0.008968013 0.007187239 -0.029614748 0.012972717 -0.025552861 -0.029879382
0.014457905 0.018543892 -0.02133369 0.031996384 -0.0066328407 -0.017764097 0.007960136 -0.02582125
0.0017679067 -0.002376087 0.0037906766 -0.008728623 0.029481014 -0.026004886 0.0020807094 -0.023455108
-0.019158643 0.009691601 0.0082296515 -0.008675501 -0.02408066 -0.0045899805 -0.02391868 -0.0324605
-0.0035428833 -0.0045097345 -0.025892498 0.029934548 -0.0012619669 -0.015042291 0.005919238 0.01641905
-0.014168036 0.03710148 0.04381515 0.03514357 0.030197432 0.036710776 0.03322848 0.028325493
0.037288766 -0.02123641 -0.020884102 -0.006551352 -0.051250223 -0.04770625 -0.047394395 0.0032839181
0.023954578 -0.012665423 0.032059174 -0.009521617 0.018305447 -0.020600963 -0.027322693 0.017230162
0.018699048 0.02060376 -0.0054673147 0.005868897 0.007667082 0.045630574 0.013885683 0.05105588
0.03550477 0.020638285 0.020169105 0.04411202 0.01989684 -0.003688038 -0.0018350595 -0.016133104
-0.013657932 -0.040703177 -0.016173273 0.0011133293 -0.03128872 0.026157858 0.015107511 -0.021800881
-0.014448793 -0.022508807 0.0073526595 0.026083551 0.015542017 -0.010352557 0.042029694 0.008872895
0.016825879 0.05024242 0.008724728 0.0370045 0.013812839 0.07565658 0.020597221 0.07763753
0.043583512 0.0701691 0.002198252 -0.006048129 -0.02795749 -0.04511176 0.0006522402 -0.013210489
-0.033620536 0.011246438 0.030540362 -0.009597446 0.005701781 -0.008687996 -0.016141139 0.016400758
-0.022562658 -0.00802652 0.029106127 0.0073321355 -0.009494746 0.0043880423 0.02431866 0.025079431
0.06942337 0.027183516 0.07994813 0.095308885 0.091229305 0.03013 0.003781274 0.05057525
-0.01788637 0.033581324 0.0016256509 -0.03562655 -0.01936375 -0.0279697 -0.0031446079 0.020276919
0.022310426 0.033188466 -0.0349594 -0.033319883 -0.019487996 -0.022015711 0.018670388 0.01147242
0.010708282 -0.017730903 -0.005919065 0.024271982 0.049466133 0.012505954 0.019081894 0.052761953
0.042919513 0.046869326 0.066516176 0.020937243 0.049886037 -0.010476826 -0.021610733 -0.043337733
0.018190399 -0.027660478 -0.00784095 0.0115101095 -0.017388338 -0.022465205 0.0044947127 0.028526714
00000000: 2513 493a f31f ab3c ea05 d6bc 20c7 0d3d
00000010: 3878 e1bb 950b efbc 17bb 073d 13f7 743c
00000020: c371 0cbd 0379 a83c 4ccb 8c3c 018f e83a
00000030: ec60 0e3c b62a dfbc 5c38 80bc 259a 743b
00000040: b1ff adbc 9334 d0ba 8029 933b a744 033d
00000050: 4efd bd3c 2ef1 7abc 5cec edbb 779d 17bc
00000060: 97c7 113d dcea dbba e051 023d 7248 0e3d
00000070: 5e0a b5bc b826 733c 5c19 5b3b 7565 b8bc
00000080: 8ad6 8bbc 44c7 e83c a3c5 9e3c 29c6 8a3c
00000090: c940 2e3c 4db7 11bd ede3 083d 8dd9 09bd
000000a0: 53a4 073d 3282 023d 0f20 973c 8fb6 72bc
000000b0: d087 113d 86b0 a73b 5d41 0dbd 6a19 ae3b
000000c0: 378b 893c 6453 9fb9 0665 2f3c 9e72 a13c
000000d0: 9afd e43c 7c7f 2a3c ec1e a2bc 9353 5cbb
000000e0: 3380 81bc 71d6 c73c c68d 083c d7a9 32bc
000000f0: 7412 e0bc 7555 713c 7d8a 37bb 3f22 b7bc
00000100: aa15 35bc e23f 013d a59c d63b 4342 70bc
00000110: 33ed 16bd 063c 21bd 04ae f03b 8b9a bebb
00000120: 064d 973b d5d9 fcbb e0c2 bdbc f8b3 3dbc
00000130: e473 f1bc 40ce 1d3c 130e 07bd 7daa 8ab8
00000140: f6e6 053d 5eb9 c2b8 93ee 12bc ee82 eb3b
00000150: a19a f2bc 858b 543c 3c54 d1bc 9bc5 f4bc
00000160: d9e0 6c3c 5ce9 973c fec3 aebc a40e 033d
00000170: 4d58 d9bb 0386 91bc 3b6b 023c 1687 d3bc
00000180: 1bb9 e73a 20b8 1bbb 006d 783b 8002 0fbc
00000190: 2b82 f13c 3308 d5bc 835c 083b ed24 c0bc
000001a0: 96f2 9cbc 85c9 1e3c a9d5 063c b023 0ebc
000001b0: ce44 c5bc 8c67 96bb 1cf1 c3bc 4df5 04bd
000001c0: b82f 68bb 65c6 93bb 811c d4bc 4c39 f53c
000001d0: 9568 a5ba f173 76bc 2bf6 c13b 3e81 863c
000001e0: 0d21 68bc b9f7 173d 8477 333d b4f2 0f3d
000001f0: 9b60 f73c 0a5e 163d 961a 083d dd0a e83c
00000200: 1bbc 183d fbf7 adbc 2315 abbc b9ac d6bb
00000210: c1eb 51bd a167 43bd a020 42bd 0137 573b
00000220: 643c c43c a282 4fbc 7b50 033d 8e00 1cbc
00000230: 4ef5 953c 5ac3 a8bc d7d3 dfbc 4526 8d3c
00000240: bf2e 993c 37c9 a83c 2927 b3bb e04f c03b
00000250: 253c fb3b 20e7 3a3d c780 633c f81f 513d
00000260: 736d 113d 9f11 a93c ae39 a53c ceae 343d
00000270: b3fe a23c 03b3 71bb 6186 f0ba 9229 84bc
00000280: 85c5 5fbc 60b8 26bd d07d 84bc 22ed 913a
00000290: 9a28 00bd 0149 d63c 7e85 773c c397 b2bc
000002a0: a1ba 6cbc 6464 b8bc 94ee f03b 2cad d53c
000002b0: f2a3 7e3c c59d 29bc 5427 2c3d 9e5f 113c
000002c0: 6dd6 893c ffca 4d3d 29f2 0e3c 0892 173d
000002d0: 3f4f 623c d6f1 9a3d 81bb a83c 6d00 9f3d
000002e0: a084 323d d1b4 8f3d 8c10 103b 622f c6bb
000002f0: 1b07 e5bc 1cc7 38bd 19fb 2a3a cf70 58bc
00000300: b0b5 09bd fb42 383c c82f fa3c 9b3e 1dbc
00000310: 01d6 ba3b 1958 0ebc 6c3a 84bc e25a 863c
00000320: 53d5 b8bc aa81 03bc f96f ee3c 6942 f03b
00000330: da8f 1bbc 91c9 8f3b ed37 c73c 6173 cd3c
00000340: d72d 8e3d f7af de3c d8bb a33d 4e31 c33d
00000350: 6ed6 ba3d 31d3 f63c 40cf 773b fe27 4f3d
00000360: 7086 92bc 928c 093d cb13 d53a 25ed 11bd
00000370: baa0 9ebc b620 e5bc c415 4ebb c81b a63c
00000380: 5bc4 b63c a1f0 073d 9631 0fbd 6e7a 08bd
00000390: 4aa5 9fbc 4b5a b4bc a4f2 983c d1f6 3b3c
000003a0: ca71 2f3c 6640 91bc b7f4 c1bb 09d6 c63c
000003b0: 009d 4a3d c6e5 4c3c a251 9c3c eb1c 583d
000003c0: 5fcc 2f3d 0dfa 3f3d a239 883d 9584 ab3c
000003d0: 4d55 4c3d fea6 2bbc fe08 b1bc e882 31bd
000003e0: 0804 953c 3a98 e2bc 5477 00bc e694 3c3c
000003f0: fd71 8ebc f308 b8bc 6248 933b dbb0 e93c

bias f4 [128]
0.026099833 0.017226646 0.045353297 0.028831976 0.024336666 -0.0035619219 -0.021516962 -0.009957022
0.014281084 0.03133412 0.030281391 0.024193693 -0.022600545 0.028572064 0.06362895 0.07680077
0.022299308 0.030043013 0.058069386 -0.037580602 0.07398481 -0.029781004 0.04544055 0.03197724
0.05417167 0.021095663 0.0022169866 0.020353932 -0.011444532 0.041477595 0.02324962 -0.00595239
0.0015353325 0.023776688 0.029008955 -0.002542486 -0.0202372 -0.018280324 0.0187047 -0.021332383
0.002212697 0.048090283 0.08696826 -0.01846686 0.0033948913 0.023883676 -0.026459713 0.032683864
0.022393072 0.015917094 0.07160672 0.052294776 0.004702998 0.05958071 0.0010422588 -0.014617809
-0.01812867 -0.0012090851 0.042820465 0.03597325 -0.0026279213 0.034265883 -0.016420031 0.019905064
0.04892493 0.032481074 0.007981392 -0.01644023 -0.045608092 0.0075691966 -0.020438131 0.04197203
0.015269221 -0.037293788 0.02760726 0.072086774 0.00025371904 -0.04700226 0.061664764 0.0018113476
-0.014198102 -0.006973543 0.014647197 0.036124635 0.001970956 0.021231705 0.026703613 -0.00648348
0.019916918 -0.02767714 0.056683715 0.0007243816 0.057693027 0.0009416678 -0.018443028 0.0066673453
-0.0066312933 0.05825933 0.05531512 0.07675988 0.03135023 -0.027599778 0.02078856 0.027215749
0.066750914 -0.010292655 0.01332401 0.009737866 0.016410453 0.08729995 0.008790126 0.052451216
0.073299505 0.0073844204 0.031882677 -0.019046942 0.0073743104 0.03481976 0.10570122 0.07103151
-0.013857026 -0.0037751552 -0.0062349434 -0.029590001 0.030859854 -0.020308174 -0.006803479 0.055810813
00000000: 51cf d53c e51e 8d3c 61c4 393d 0931 ec3c
00000010: b05d c73c 226f 69bb 5744 b0bc c722 23bc
00000020: 35fb 693c 3558 003d ae10 f83c da31 c63c
00000030: c724 b9bc f60f ea3c e54f 823d b949 9d3d
00000040: 0aad b63c c41c f63c 2ada 6d3d 1eee 19bd
00000050: 5985 973d 4bf7 f3bc df1f 3a3d 91fa 023d
00000060: 1de3 5d3d d0d0 ac3c dd4a 113b 4abd a63c
00000070: d981 3bbc 69e4 293d fd75 be3c 440c c3bb
00000080: 363d c93a 54c7 c23c 30a4 ed3c d69f 26bb
00000090: 7cc8 a5bc 9ec0 95bc 993a 993c 40c1 aebc
000000a0: e502 113b 51fa 443d 6a1c b23d d047 97bc
000000b0: d37c 5e3b b3a7 c33c 0ac2 d8bc 84df 053d
000000c0: ad71 b73c 9164 823c 8ba6 923d 0c33 563d
000000d0: 9b1b 9a3b e70a 743d 679c 883a 897f 6fbc
000000e0: 9482 94bc 2a7a 9eba 8364 2f3d b058 133d
000000f0: 3439 2cbb 625a 0c3d 4d83 86bc f20f a33c
00000100: 8265 483d e00a 053d 62c4 023c a9ad 86bc
00000110: 8dcf 3abd 0607 f83b de6d a7bc ddea 2b3d
00000120: c12b 7a3c 5fc1 18bd 9f28 e23c 3ba2 933d
00000130: 9805 8539 7185 40bd 3194 7c3d bd6a ed3a
00000140: 289f 68bc 5282 e4bb ccfa 6f3c 6df7 133d
00000150: 282b 013b 1dee ad3c 89c1 da3c 5f73 d4bb
00000160: ce28 a33c 2bbb e2bc 2f2d 683d 6de4 3d3a
00000170: 864f 6c3d 42da 763a d515 97bc bf79 da3b
00000180: 524b d9bb 56a1 6e3d 1b92 623d 4934 9d3d
00000190: 1969 003d ee18 e2bc c54c aa3c 90f3 de3c
000001a0: b4b4 883d 86a2 28bc f34c 5a3c 928b 1f3c
000001b0: 376f 863c 51ca b23d 7604 103c 16d7 563d
000001c0: 0d1e 963d 02f9 f13b 6997 023d 5508 9cbc
000001d0: 33a4 f13b 2a9f 0e3d e279 d83d f878 913d
000001e0: 9408 63bc 9868 77bb 7f4e ccbb bb66 f2bc
000001f0: cecd fc3c 545d a6bc b8ef debb e199 643d

weight f4 [64, 128]
0.0899823 0.05086738 0.04840193 -0.08345566 0.08107739 -0.04035937 0.016450139 -0.09320633
0.044326946 -0.03593621 -0.034654908 0.07889234 0.031988878 0.10874241 0.14686371 -0.04042255
0.039910607 0.08350908 0.0063933516 -0.02508723 0.08393969 0.03638078 -0.06378439 -0.01959449
-0.063734785 0.008374679 -0.08783671 0.013758641 -0.08917014 0.05136849 0.03869684 -0.104887046
-0.10081332 -0.100193396 -0.05942521 -0.004621224 0.034531355 0.111365564 0.0825948 -0.06912492
0.035331883 0.0723673 0.016582621 -0.06873965 0.09686218 -0.015641171 0.00083544693 0.09558524
0.0345406 0.022601789 -0.046822164 0.021904374 0.035112873 -0.05740619 0.03767165 0.064910635
0.069599494 0.024232551 -0.037032366 0.014751339 0.05806797 -0.004684386 -0.073561095 -0.09671869
0.07162421 -0.007263835 0.051194694 -0.114112295 -0.052494064 0.010919746 -0.03705186 -0.035653464
-0.09182184 -0.120455235 0.041335087 0.1546141 0.07197066 -0.04867412 0.15484805 0.07466802
0.039588142 -0.016696373 0.09716717 0.09753243 -0.023450376 0.04201512 0.025757028 -0.09817023
0.04260166 0.01568278 0.0011658211 0.013358039 -0.033579 -0.011789642 0.04123996 0.030896803
-0.063966624 0.01811879 -0.026432851 -0.056645893 0.04003567 -0.008522982 0.064436406 -0.0050011906
-0.021143956 0.03939436 -0.0056282706 0.09933774 0.07205881 -0.06449158 -0.012611972 0.03793694
0.06733839 -0.012821607 0.0503541 -0.019407269 0.00251884 -0.0022188504 0.083465144 -0.06895657
-0.07528347 -0.037425067 0.012444042 0.092499614 -0.02409071 -0.034054887 -0.1255551 -0.027707927
0.027276138 0.0041540214 0.097751 0.012957776 -0.08615607 0.036062993 0.03768739 -0.11277271
0.03944989 0.121972315 0.09132929 -0.057186935 0.07090714 -0.12453619 0.08001796 0.02530778
0.060595635 0.027951984 -0.0053191762 0.0014300765 0.026245762 -0.045609947 -0.046028472 -0.052294202
-0.10179864 0.07087358 0.08594893 0.0055920547 -0.07907231 0.07179863 0.06595051 0.0032855289
0.12010257 -0.011341173 -0.019378074 0.05005292 -0.06913683 -0.102025844 -0.066167295 -0.042620644
-0.009906349 -0.011271524 0.16011302 -0.065005906 0.07117808 0.06292588 -0.05252513 0.017805448
0.12602016 -0.037039433 -0.0052228346 -0.057135426 -0.06565014 0.0899232 0.05679413 0.062793486
0.0310588 0.12273985 0.016530687 0.011812337 0.062973976 -0.05974009 0.10729409 0.08665941
-0.08329966 -0.11281035 -0.057184853 -0.006798777 -0.06716831 -0.07319156 -0.036744088 0.06940709
0.05658108 0.059389405 0.0016452183 0.078052424 -0.08651496 0.00045615877 -0.032803074 0.101039164
-0.060179166 -0.028648576 0.08212521 -0.16703247 -0.071521446 -0.04002179 0.0054634507 0.10949691
-0.020755254 -0.06538393 0.074190944 -0.0006719222 0.021179335 0.024660774 -0.026503071 -0.058554996
0.013742567 0.069584094 0.07077416 -0.02046845 0.055492695 -0.0724586 0.037701827 -0.011101911
0.22378959 -0.003591291 -0.04761081 0.06525079 -0.0034450463 -0.05058892 0.013150991 0.06379677
-0.025764069 0.015262416 -0.08000288 -0.017246362 -0.07703242 0.120519005 -0.0056278566 -0.007611818
0.03459824 -0.003481216 -0.0044580246 -0.029972589 -0.089185126 0.06429076 0.16306905 0.14018995
00000000: a448 b83d 505a 503d 1a41 463d cdea aabd
00000010: e70b a63d de4f 25bd 71c2 863c f6e2 bebd
00000020: 2c90 353d d931 13bd 4ef2 0dbd 4f92 a13d
00000030: c506 033d 57b4 de3d 7163 163e 1e92 25bd
00000040: 4e79 233d cf06 ab3d 527f d13b bc83 cdbc
00000050: 92e8 ab3d 0304 153d 64a1 82bd a084 a0bc
00000060: 6287 82bd f335 093c bce3 b3bd ec6b 613c
00000070: d69e b6bd c467 523d 9480 1e3d 05cf d6bd
00000080: 3777 cebd 3232 cdbd d967 73bd a36d 97bb
00000090: c070 0d3d a113 e43d 7627 a93d 5e91 8dbd
000000a0: 2ab8 103d 4f35 943d 47d8 873c 60c7 8cbd
000000b0: ae5f c63d ea21 80bc e501 5b3a 32c2 c33d
000000c0: 727a 0d3d 6327 b93c 99c8 3fbd cd70 b33c
000000d0: 84d2 0f3d c122 6bbd 974d 1a3d deef 843d
000000e0: 2e8a 8e3d 5883 c63c 40af 17bd 9aaf 713c
000000f0: aed8 6d3d 7a7f 99bb 33a7 96bd 7314 c6bd
00000100: b7af 923d 7705 eebb 87b1 513d b5b3 e9bd
00000110: 0404 57bd bce8 323c b1c3 17bd 5e09 12bd
00000120: 170d bcbd 3cb1 f6bd fb4e 293d 2953 1e3e
00000130: 5a65 933d 845e 47bd 7d90 1e3e 8ceb 983d
00000140: 2d27 223d d5c6 88bc 95ff c63d 15bf c73d
00000150: 011b c0bc 0c18 2c3d 6700 d33c 790d c9bd
00000160: 147f 2e3d 2c79 803c 77ce 983a addb 5a3c
00000170: 228a 09bd 5829 41bc 3beb 283d 4b1b fd3c
00000180: ef00 83bd db6d 943c b589 d8bc 8605 68bd
00000190: 71fc 233d faa3 0bbc 3cf7 833d 07e1 a3bb
000001a0: 1736 adbc fb5b 213d 5b6d b8bb 9671 cb3d
000001b0: 9293 933d 2914 84bd 72a2 4ebc c463 1b3d
000001c0: b6e8 893d b811 52bc 1a40 4e3d fefb 9ebc
000001d0: 1f13 253b 226a 11bb c6ef aa3d 1a39 8dbd
000001e0: 382e 9abd 074b 19bd 18e2 4b3c 7070 bd3d
000001f0: e159 c5bc 237d 0bbd 8491 00be bcfb e2bc
00000200: 3572 df3c 751e 883b ad31 c83d da4c 543c
00000210: 9872 b0bd cab6 133d 185e 1a3d 61f5 e6bd
00000220: 3596 213d 9fcc f93d da0a bb3d d93c 6abd
00000230: c337 913d d40c ffbd 75e0 a33d 4352 cf3c
00000240: 2133 783d 8ffb e43c 7c4c aebb 6871 bb3a
00000250: 5a01 d73c 7fd1 3abd 5a88 3cbd 7232 56bd
00000260: ce7b d0bd 2b26 913d fe05 b03d 8e3d b73b
00000270: aaf0 a1bd 290b 933d 1011 873d 0752 573b
00000280: 56f8 f53d 54d0 39bc c4be 9ebc 4a04 4d3d
00000290: 9c97 8dbd edf2 d0bd b882 87bd fc92 2ebd
000002a0: 3d4e 22bc 33ac 38bc abf4 233e d121 85bd
000002b0: d0c5 913d 49df 803d 9724 57bd bbdc 913c
000002c0: 6e0b 013e a9b6 17bd 5024 abbb d606 6abd
000002d0: 9573 86bd a829 b83d f6a0 683d df99 803d
000002e0: 066f fe3c 085f fb3d 5d6b 873c 8888 413c
000002f0: 80f8 803d 06b2 74bd 01bd db3d 7d7a b13d
00000300: 0399 aabd 1d09 e7bd aa3a 6abd 46c8 debb
00000310: 8a8f 89bd 75e5 95bd f880 16bd 4e25 8e3d
00000320: 90c1 673d 4e42 733d 5ea4 d73a f3d9 9f3d
00000330: c12e b1bd 9828 ef39 845c 06bd 9fed ce3d
00000340: 6e7e 76bd 6bb0 eabc 4331 a83d 8f0a 2bbe
00000350: d679 92bd e3ed 23bd bf06 b33b ea3f e03d
00000360: ec06 aabc 03e8 85bd 6cf1 973d ef23 30ba
00000370: 4980 ad3c 6405 ca3c f81c d9bc 5dd7 6fbd
00000380: 8128 613c 1b82 8e3d 0bf2 903d 73ad a7bc
00000390: 4f4c 633d 2d65 94bd 3b6d 1a3d cae4 35bc
000003a0: 1929 653e dd5b 6bbb 8d03 43bd 35a2 853d
000003b0: 49c6 61bb 5436 4fbd 4177 573c e2a7 823d
000003c0: 2b0f d3bc 360f 7a3c 8dd8 a3bd 3e48 8dbc
000003d0: 2cc3 9dbd abd2 f63d e269 b8bb 8f6c f9bb
000003e0: e2b6 0d3d 1d25 64bb 9f14 92bb 1389 f5bc
000003f0: b1a6 b6bd e0aa 833d 93fb 263e f48d 0f3e

bias f4 [64]
0.12841474 0.1436049 -0.08293011 -0.025951117 -0.050945755 0.031095864 0.007885609 0.0025209838
0.02398676 -0.025855353 0.10179777 0.13320155 0.04493011 0.042296693 -0.11472269 -0.08035008
-0.046924453 0.054083996 -0.0051187603 0.17068768 0.046687696 -0.05757498 -0.046844717 -0.05865635
0.0048096264 0.009669756 0.035397954 -0.015275347 0.027553378 0.06163743 -0.05476182 -0.019507453
0.08671237 0.067538925 0.10094163 -0.06207678 0.08174369 0.07263312 -0.09240835 0.03634992
0.17023322 -0.002833457 -0.020334631 0.021281749 0.1140515 0.008356417 0.003015109 -0.008359709
0.07254182 -0.08725647 0.00043900163 0.026685223 -0.11009504 0.08198559 0.089235984 0.081730776
0.09400741 0.1965068 0.02405992 0.124906234 0.04901789 -0.010317547 -0.052655455 0.12155186
00000000: 277f 033e 2a0d 133e 43d7 a9bd 7097 d4bc
00000010: 7fac 50bd c1bc fe3c a432 013c 1737 253b
00000020: e27f c43c 9bce d3bc 597b d03d fd65 083e
00000030: a308 383d 4c3f 2d3d bbf3 eabd 958e a4bd
00000040: db33 40bd 2e87 5d3d 46bb a7bb c0c8 2e3e
00000050: 993b 3f3d bed3 6bbd 3fe0 3fbd a441 70bd
00000060: 129a 9d3b e56d 1e3c 72fd 103d 7345 7abc
00000070: 9fb7 e13c 8877 7c3d ee4d 60bd 18ce 9fbc
00000080: 4196 b13d d951 8a3d 7cba ce3d 3944 7ebd
00000090: 3c69 a73d acc0 943d 9740 bdbd a7e3 143d
000000a0: 9e51 2e3e 85b1 39bb d094 a6bc 1057 ae3c
000000b0: d593 e93d 5ae9 083c 2399 453b 29f7 08bc
000000c0: ce90 943d 85b3 b2bd cd29 e639 f89a da3c
000000d0: 8279 e1bd 10e8 a73d 5bc1 b63d 7762 a73d
000000e0: f586 c03d 1439 493e 4f19 c53c d7ce ff3d
000000f0: fcc6 483d ee0a 29bc 3fad 57bd 2ef0 f83d

weight f4 [10, 64]
-0.06584945 0.20454903 0.0892922 0.06965196 -0.023918835 -0.023323936 -0.10234382 0.08732843
0.16002648 0.016085213 -0.30278093 -0.045651454 -0.044472095 0.0115037495 0.24965389 0.033242125
0.18657808 0.13536972 -0.034582958 -0.22825634 0.07794053 0.11360565 0.07477431 -0.049242053
0.0733242 0.43972698 0.30756438 -0.078922205 -0.23642488 0.0044943 0.30516204 0.09926762
-0.060207345 -0.15161 -0.097483575 0.11359802 -0.42251214 0.21712252 -0.23506483 -0.04819763
-0.1187938 -0.08980289 -0.21371453 -0.08238428 0.19068798 -0.2921498 -0.23015794 -0.028766913
-0.15169425 0.14351045 0.2893033 -0.033151194 0.14186305 -0.055120904 -0.1338845 -0.41375476
-0.26478237 -0.19737072 0.13431577 0.14437467 -0.15823402 0.05579759 0.115195796 0.16286428
-0.04921879 -0.18812983 0.079395235 -0.014938835 0.009246615 0.29442388 0.17044964 -0.1868463
-0.25263217 -0.011774889 0.35124016 0.2521719 -0.18546186 0.18619807 0.08011461 0.034809332
-0.0761964 0.22186866 0.07416298 0.25629026 -0.07566149 0.014027417 0.0759812 -0.23366576
0.297185 -0.4285905 -0.48055923 0.18887794 0.079427384 0.12149014 -0.086876065 -0.083270326
0.038587343 0.053155273 -0.14071764 -0.045898817 0.006795747 -0.24256904 -0.23947045 0.14501819
0.3079688 -0.03017299 0.039378215 -0.06470896 0.017169751 -0.18492258 0.34717995 0.21759823
-0.080772154 -0.06564876 0.091581404 -0.19683246 -0.08398567 -0.2432464 0.18314825 0.13716605
-0.27287725 0.30519283 -0.1655315 -0.17932113 -0.1210347 0.017197773 0.050101444 0.0072432687
-0.01970868 -0.04119999 0.124586806 0.07826943 0.021353057 -0.17462796 0.1908044 0.41065523
-0.083751045 -0.021711612 -0.111471236 -0.12018238 0.16593534 -0.17260452 0.2763995 0.09668042
-0.096999004 0.2768418 -0.061704352 -0.11891844 0.3402051 -0.11916136 -0.07206508 0.08799481
-0.10447527 0.119892985 -0.12513569 -0.10841101 0.307736 -0.014068005 -0.0036875154 -0.05362048
0.020208629 0.026522394 -0.2937551 -0.07205888 -0.41076717 -0.10488311 0.22472648 0.114741325
0.032003753 -0.107100315 -0.05477166 -0.030706596 -0.1586809 0.25325114 0.069075994 -0.06939947
-0.18764432 0.0156098725 -0.28828198 -0.12748805 0.35791463 -0.100996725 0.18156953 0.015245252
-0.019501429 0.22109552 -0.06413794 -0.10085109 0.10507593 0.04370871 0.30169645 -0.12533107
-0.0623091 -0.30317372 -0.0035392195 -0.11795716 -0.033589426 -0.25350615 0.017996734 0.04262207
0.109677225 0.0059838127 -0.08797215 0.13262275 0.04863627 -0.060933564 0.04909535 -0.018099468
-0.049793728 0.32685062 -0.05186012 -0.18456617 -0.043483607 0.0610388 0.067997985 0.15146357
-0.20210525 -0.066064835 0.3466185 0.11360183 0.002317351 0.015542654 -0.14723651 -0.011025184
0.063275255 0.24253109 0.0077721537 -0.11088509 0.33112362 -0.32866102 -0.14557983 -0.25938648
0.08484077 0.009769585 -0.16223197 -0.07365606 -0.14173488 -0.16708809 -0.12243185 0.35408887
-0.05720302 -0.0422766 -0.22323298 -0.23752657 0.11638013 -0.1692384 0.017452996 0.39662412
-0.03508204 -0.2740388 -0.14906226 0.20376626 -0.021255348 0.0699194 0.28485546 0.21171603
00000000: 14dc 86bd 4d75 513e d4de b63d b0a5 8e3d
00000010: 6ff1 c3bc d711 bfbc a399 d1bd 3fd9 b23d
00000020: fbdd 233e 23c5 833c 1a06 9bbe 05fd 3abd
00000030: 5f28 36bd 397a 3c3c 45a5 7f3e e528 083d
00000040: 530e 3f3e 5c9e 0a3e dca6 0dbd 08bc 69be
00000050: 499f 9f3d 14aa e83d 4623 993d 09b2 49bd
00000060: 002b 963d e523 e13e 1479 9d3e f7a1 a1bd
00000070: 5d19 72be ec44 933b 333e 9c3e d24c cb3d
00000080: fa9b 76bd a73f 1bbe 78a5 c7bd 14a6 e83d
00000090: 8353 d8be 5e55 5e3e d6b4 70be e16a 45bd
000000a0: 2a4a f3bd 94ea b7bd fbd7 5abe 17b9 a8bd
000000b0: b643 433e a994 95be 86ae 6bbe 97a8 ebbc
000000c0: bd55 1bbe 67f4 123e 901f 943e 8cc9 07bd
000000d0: 8c44 113e 75c6 61bd 0519 09be aad7 d3be
000000e0: 8e91 87be 8d1b 4abe 138a 093e f4d6 133e
000000f0: 1908 22be 048c 643d c6eb eb3d e5c5 263e
00000100: a499 49bd 1ba5 40be f899 a23d 04c2 74bc
00000110: 1d7f 173c babe 963e 5a8a 2e3e a354 3fbe
00000120: 0159 81be 77eb 40bc c0d5 b33e ad1c 813e
00000130: b7e9 3dbe b5aa 3e3e 2113 a43d 3b94 0e3d
00000140: dc0c 9cbd 8a31 633e c3e2 973d 7a38 833e
00000150: 69f4 9abd 40d3 653c 089c 9b3d 1446 6fbe
00000160: a228 983e 3770 dbbe dc0b f6be 3869 413e
00000170: d3aa a23d d3cf f83d 14ec b1bd a289 aabd
00000180: c30d 1e3d 58b9 593d 4918 10be 6600 3cbd
00000190: dcae de3b 0564 78be be37 75be a67f 143e
000001a0: 16ae 9d3e 592d f7bc 0d4b 213d 2286 84bd
000001b0: 94a7 8c3c 585c 3dbe 92c1 b13e 12d2 5e3e
000001c0: df6b a5bd db72 86bd 088f bb3d 738e 49be
000001d0: ae00 acbd 9615 79be 378b 3b3e 4275 0c3e
000001e0: 91b6 8bbe 3c42 9c3e 1781 29be f59f 37be
000001f0: 0ae1 f7bd 58e2 8c3c 2c37 4d3d f158 ed3b
00000200: 1974 a1bc 52c1 28bd 5e27 ff3d b94b a03d
00000210: 9bec ae3c acd1 32be 3b62 433e 6741 d23e
00000220: ab85 abbd 8ddc b1bc 084b e4bd 2e22 f6bd
00000230: f4ea 293e 3dbf 30be 3c84 8d3e 6200 c63d
00000240: 6aa7 c6bd 35be 8d3e b4bd 7cbd 838b f3bd
00000250: 5d2f ae3e df0a f4bd db96 93bd 9f36 b43d
00000260: 21f7 d5bd 748a f53d 9223 00be 9706 debd
00000270: 938f 9d3e 7d7d 66bc 3eaa 71bb 26a1 5bbd
00000280: 918c a53c 7e45 d93c 1267 96be 9b93 93bd
00000290: 1350 d2be f5cc d6bd b31e 663e 80fd ea3d
000002a0: 5e16 033d 6957 dbbd 4058 60bd 668c fbbc
000002b0: 3f7d 22be 22aa 813e b777 8d3d 4f21 8ebd
000002c0: d525 40be 8dc0 7f3c b299 93be 3a8c 02be
000002d0: 9640 b73e 5fd7 cebd 5ded 393e 39c7 793c
000002e0: 76c1 9fbc dd66 623e c15a 83bd 048b cebd
000002f0: 0d32 d73d e807 333d f577 9a3e ca56 00be
00000300: d437 7fbd 9639 9bbe 40f2 67bb 8693 f1bd
00000310: 1195 09bd 8fcb 81be e36d 933c 7b94 2e3d
00000320: 749e e03d dc13 c43b be2a b4bd 42ce 073e
00000330: d336 473d 7995 79bd 3518 493d 5645 94bc
00000340: 82f4 4bbd f758 a73e 476b 54bd eafe 3cbe
00000350: de1b 32bd d203 7a3d 8742 8b3d 4419 1b3e
00000360: aef4 4ebe 004d 87bd fb77 b13e 14a8 e83d
00000370: b3de 173b 9ea6 7e3c 2bc5 16be f9a2 34bc
00000380: 7596 813d 125a 783e 8dad fe3b b917 e3bd
00000390: 0989 a93e 4246 a8be e112 15be 4ece 84be
000003a0: ffc0 ad3d 9c10 203c 2320 26be fdd8 96bd
000003b0: f322 11be 2419 2bbe 8dbd fabd 234b b53e
000003c0: b74d 6abd 3a2a 2dbd 3097 64be 2a3a 73be
000003d0: b558 ee3d d54c 2dbe 96f9 8e3c 5112 cb3e
000003e0: 2fb2 0fbd d04e 8cbe c7a3 18be 1aa8 503e
000003f0: b21f aebc e731 8f3d 93d8 913e 16cc 583e

bias f4 [10]
-0.20854771 0.21646976 -0.021087665 -0.086215094 0.1003636 0.10290316 -0.08462804 0.18408708
-0.26287475 0.1425313
00000000: 888d 55be 40aa 5d3e 0ac0 acbc 8a91 b0bd
00000010: 6e8b cd3d e4be d23d 7751 adbd 5381 3c3e
00000020: 8597 86be baf3 113e
